…
[2025-03-24 15:56:47,376] [INFO] [launch.py:256:main] process 853999 spawned with command: ['/home/xdhpc/miniconda3/envs/dits/bin/python', '-u', 'ds-train.py', '--local_rank=1']
[2025-03-24 15:56:51,302] [INFO] [real_accelerator.py:219:get_accelerator] Setting ds_accelerator to cuda (auto detect)
[2025-03-24 15:56:51,382] [INFO] [real_accelerator.py:219:get_accelerator] Setting ds_accelerator to cuda (auto detect)
加载数据集,dataset is <dataset.MNIST object at 0x7419a82a7ac0>
self.patch_size is 4
self.conv is Conv2d(1, 16, kernel_size=(4, 4), stride=(4, 4))
加载数据集,dataset is <dataset.MNIST object at 0x7b25111b3ac0>
self.patch_size is 4
self.conv is Conv2d(1, 16, kernel_size=(4, 4), stride=(4, 4))
加载模型,model is DiT(
  (conv): Conv2d(1, 16, kernel_size=(4, 4), stride=(4, 4))
  (patch_emb): Linear(in_features=16, out_features=64, bias=True)
  (time_emb): Sequential(
    (0): TimeEmbedding()
    (1): Linear(in_features=64, out_features=64, bias=True)
    (2): ReLU()
    (3): Linear(in_features=64, out_features=64, bias=True)
  )
  (label_emb): Embedding(10, 64)
  (dits): ModuleList(
    (0-2): 3 x DiTBlock(
      (gamma1): Linear(in_features=64, out_features=64, bias=True)
      (beta1): Linear(in_features=64, out_features=64, bias=True)
      (alpha1): Linear(in_features=64, out_features=64, bias=True)
      (gamma2): Linear(in_features=64, out_features=64, bias=True)
      (beta2): Linear(in_features=64, out_features=64, bias=True)
      (alpha2): Linear(in_features=64, out_features=64, bias=True)
      (ln1): LayerNorm((64,), eps=1e-05, elementwise_affine=True)
      (ln2): LayerNorm((64,), eps=1e-05, elementwise_affine=True)
      (wq): Linear(in_features=64, out_features=256, bias=True)
      (wk): Linear(in_features=64, out_features=256, bias=True)
      (wv): Linear(in_features=64, out_features=256, bias=True)
      (lv): Linear(in_features=256, out_features=64, bias=True)
      (ff): Sequential(
        (0): Linear(in_features=64, out_features=256, bias=True)
        (1): ReLU()
        (2): Linear(in_features=256, out_features=64, bias=True)
      )
    )
  )
  (ln): LayerNorm((64,), eps=1e-05, elementwise_affine=True)
  (linear): Linear(in_features=64, out_features=16, bias=True)
)
加载模型,model is DiT(
  (conv): Conv2d(1, 16, kernel_size=(4, 4), stride=(4, 4))
  (patch_emb): Linear(in_features=16, out_features=64, bias=True)
  (time_emb): Sequential(
    (0): TimeEmbedding()
    (1): Linear(in_features=64, out_features=64, bias=True)
    (2): ReLU()
    (3): Linear(in_features=64, out_features=64, bias=True)
  )
  (label_emb): Embedding(10, 64)
  (dits): ModuleList(
    (0-2): 3 x DiTBlock(
      (gamma1): Linear(in_features=64, out_features=64, bias=True)
      (beta1): Linear(in_features=64, out_features=64, bias=True)
      (alpha1): Linear(in_features=64, out_features=64, bias=True)
      (gamma2): Linear(in_features=64, out_features=64, bias=True)
      (beta2): Linear(in_features=64, out_features=64, bias=True)
      (alpha2): Linear(in_features=64, out_features=64, bias=True)
      (ln1): LayerNorm((64,), eps=1e-05, elementwise_affine=True)
      (ln2): LayerNorm((64,), eps=1e-05, elementwise_affine=True)
      (wq): Linear(in_features=64, out_features=256, bias=True)
      (wk): Linear(in_features=64, out_features=256, bias=True)
      (wv): Linear(in_features=64, out_features=256, bias=True)
      (lv): Linear(in_features=256, out_features=64, bias=True)
      (ff): Sequential(
        (0): Linear(in_features=64, out_features=256, bias=True)
        (1): ReLU()
        (2): Linear(in_features=256, out_features=64, bias=True)
      )
    )
  )
  (ln): LayerNorm((64,), eps=1e-05, elementwise_affine=True)
  (linear): Linear(in_features=64, out_features=16, bias=True)
)
[2025-03-24 15:56:54,401] [INFO] [logging.py:128:log_dist] [Rank -1] DeepSpeed info: version=0.15.4, git-hash=unknown, git-branch=unknown
[2025-03-24 15:56:54,402] [INFO] [comm.py:652:init_distributed] cdb=None
[2025-03-24 15:56:54,405] [INFO] [logging.py:128:log_dist] [Rank -1] DeepSpeed info: version=0.15.4, git-hash=unknown, git-branch=unknown
[2025-03-24 15:56:54,406] [INFO] [comm.py:652:init_distributed] cdb=None
…
